…
extracting:</span><br><span class="line">        <span class="keyword">for</span> param <span class="keyword">in</span> model.parameters():</span><br><span class="line">            param.requires_grad = <span class="keyword">False</span></span><br></pre></td></tr></table></figure><figure class="highlight python"><table><tr><td class="gutter"><pre><span class="line">1</span><br><span class="line">2</span><br></pre></td><td class="code"><pre><span class="line">model_ft = models.resnet152()</span><br><span class="line">model_ft</span><br></pre></td></tr></table></figure><pre><code>ResNet(  (conv1): Conv2d(3, 64, kernel_size=(7, 7), stride=(2, 2), padding=(3, 3), bias=False)  (bn1): BatchNorm2d(64, eps=1e-05, momentum=0.1, affine=True, track_running_stats=True)  (relu): ReLU(inplace=True)  (maxpool): MaxPool2d(kernel_size=3, stride=2, padding=1, dilation=1, ceil_mode=False)  (layer1): Sequential(    (0): Bottleneck(      (conv1): Conv2d(64, 64, kernel_size=(1, 1), stride=(1, 1), bias=False)      (bn1): BatchNorm2d(64, eps=1e-05, momentum=0.1, affine=True, track_running_stats=True)      (conv2): Conv2d(64, 64, kernel_size=(3, 3), stride=(1, 1), padding=(1, 1), bias=False)      (bn2): BatchNorm2d(64, eps=1e-05, momentum=0.1, affine=True, track_running_stats=True)      (conv3): Conv2d(64, 256, kernel_size=(1, 1), stride=(1, 1), bias=False)      (bn3): BatchNorm2d(256, eps=1e-05, momentum=0.1, affine=True, track_running_stats=True)      (relu): ReLU(inplace=True)      (downsample): Sequential(        (0): Conv2d(64, 256, kernel_size=(1, 1), stride=(1, 1), bias=False)        (1): BatchNorm2d(256, eps=1e-05, momentum=0.1, affine=True, track_running_stats=True)      )    )    (1): Bottleneck(      (conv1): Conv2d(256, 64, kernel_size=(1, 1), stride=(1, 1), bias=False)      (bn1): BatchNorm2d(64, eps=1e-05, momentum=0.1, affine=True, track_running_stats=True)      (conv2): Conv2d(64, 64, kernel_size=(3, 3), stride=(1, 1), padding=(1, 1), bias=False)      (bn2): BatchNorm2d(64, eps=1e-05, momentum=0.1, affine=True, track_running_stats=True)      (conv3): Conv2d(64, 256, kernel_size=(1, 1), stride=(1, 1), bias=False)      (bn3): BatchNorm2d(256, eps=1e-05, momentum=0.1, affine=True, track_running_stats=True)      (relu): ReLU(inplace=True)    )    (2): Bottleneck(      (conv1): Conv2d(256, 64, kernel_size=(1, 1), stride=(1, 1), bias=False)      (bn1): BatchNorm2d(64, eps=1e-05, momentum=0.1, affine=True, track_running_stats=True)      (conv2): Conv2d(64, 64, kernel_size=(3, 3), stride=(1, 1), padding=(1, 1), bias=False)      (bn2): BatchNorm2d(64, eps=1e-05, momentum=0.1, affine=True, track_running_stats=True)      (conv3): Conv2d(64, 256, kernel_size=(1, 1), stride=(1, 1), bias=False)      (bn3): BatchNorm2d(256, eps=1e-05, momentum=0.1, affine=True, track_running_stats=True)      (relu): ReLU(inplace=True)    )  )  (layer2): Sequential(    (0): Bottleneck(      (conv1): Conv2d(256, 128, kernel_size=(1, 1), stride=(1, 1), bias=False)      (bn1): BatchNorm2d(128, eps=1e-05, momentum=0.1, affine=True, track_running_stats=True)      (conv2): Conv2d(128, 128, kernel_size=(3, 3), stride=(2, 2), padding=(1, 1), bias=False)      (bn2): BatchNorm2d(128, eps=1e-05, momentum=0.1, affine=True, track_running_stats=True)      (conv3): Conv2d(128, 512, kernel_size=(1, 1), stride=(1, 1), bias=False)      (bn3): BatchNorm2d(512, eps=1e-05, momentum=0.1, affine=True, track_running_stats=True)      (relu): ReLU(inplace=True)      (downsample): Sequential(        (0): Conv2d(256, 512, kernel_size=(1, 1), stride=(2, 2), bias=False)        (1): BatchNorm2d(512, eps=1e-05, momentum=0.1, affine=True, track_running_stats=True)      )    )    (1): Bottleneck(      (conv1): Conv2d(512, 128, kernel_size=(1, 1), stride=(1, 1), bias=False)      (bn1): BatchNorm2d(128, eps=1e-05, momentum=0.1, affine=True, track_running_stats=True)      (conv2): Conv2d(128, 128, kernel_size=(3, 3), stride=(1, 1), padding=(1, 1), bias=False)      (bn2): BatchNorm2d(128, eps=1e-05, momentum=0.1, affine=True, track_running_stats=True)      (conv3): Conv2d(128, 512, kernel_size=(1, 1), stride=(1, 1), bias=False)      (bn3): BatchNorm2d(512, eps=1e-05, momentum=0.1, affine=True, track_running_stats=True)      (relu): ReLU(inplace=True)    )    (2): Bottleneck(      (conv1): Conv2d(512, 128, kernel_size=(1, 1), stride=(1, 1), bias=False)      (bn1): BatchNorm2d(128, eps=1e-05, momentum=0.1, affine=True, track_running_stats=True)      (conv2): Conv2d(128, 128, kernel_size=(3, 3), stride=(1, 1), padding=(1, 1), bias=False)      (bn2): BatchNorm2d(128, eps=1e-05, momentum=0.1, affine=True, track_running_stats=True)      (conv3): Conv2d(128, 512, kernel_size=(1, 1), stride=(1, 1), bias=False)      (bn3): BatchNorm2d(512, eps=1e-05, momentum=0.1, affine=True, track_running_stats=True)      (relu): ReLU(inplace=True)    )    (3): Bottleneck(      (conv1): Conv2d(512, 128, kernel_size=(1, 1), stride=(1, 1), bias=False)      (bn1): BatchNorm2d(128, eps=1e-05, momentum=0.1, affine=True, track_running_stats=True)      (conv2): Conv2d(128, 128, kernel_size=(3, 3), stride=(1, 1), padding=(1, 1), bias=False)      (bn2): BatchNorm2d(128, eps=1e-05, momentum=0.1, affine=True, track_running_stats=True)      (conv3): Conv2d(128, 512, kernel_size=(1, 1), stride=(1, 1), bias=False)      (bn3): BatchNorm2d(512, eps=1e-05, momentum=0.1, affine=True, track_running_stats=True)      (relu): ReLU(inplace=True)    )    (4): Bottleneck(      (conv1): Conv2d(512, 128, kernel_size=(1, 1), stride=(1, 1), bias=False)      (bn1): BatchNorm2d(128, eps=1e-05, momentum=0.1, affine=True, track_running_stats=True)      (conv2): Conv2d(128, 128, kernel_size=(3, 3), stride=(1, 1), padding=(1, 1), bias=False)      (bn2): BatchNorm2d(128, eps=1e-05, momentum=0.1, affine=True, track_running_stats=True)      (conv3): Conv2d(128, 512, kernel_size=(1, 1), stride=(1, 1), bias=False)      (bn3): BatchNorm2d(512, eps=1e-05, momentum=0.1, affine=True, track_running_stats=True)      (relu): ReLU(inplace=True)    )    (5): Bottleneck(      (conv1): Conv2d(512, 128, kernel_size=(1, 1), stride=(1, 1), bias=False)      (bn1): BatchNorm2d(128, eps=1e-05, momentum=0.1, affine=True, track_running_stats=True)      (conv2): Conv2d(128, 128, kernel_size=(3, 3), stride=(1, 1), padding=(1, 1), bias=False)      (bn2): BatchNorm2d(128, eps=1e-05, momentum=0.1, affine=True, track_running_stats=True)      (conv3): Conv2d(128, 512, kernel_size=(1, 1), stride=(1, 1), bias=False)      (bn3): BatchNorm2d(512, eps=1e-05, momentum=0.1, affine=True, track_running_stats=True)      (relu): ReLU(inplace=True)    )    (6): Bottleneck(      (conv1): Conv2d(512, 128, kernel_size=(1, 1), stride=(1, 1), bias=False)      (bn1): BatchNorm2d(128, eps=1e-05, momentum=0.1, affine=True, track_running_stats=True)      (conv2): Conv2d(128, 128, kernel_size=(3, 3), stride=(1, 1), padding=(1, 1), bias=False)      (bn2): BatchNorm2d(128, eps=1e-05, momentum=0.1, affine=True, track_running_stats=True)      (conv3): Conv2d(128, 512, kernel_size=(1, 1), stride=(1, 1), bias=False)      (bn3): BatchNorm2d(512, eps=1e-05, momentum=0.1, affine=True, track_running_stats=True)      (relu): ReLU(inplace=True)    )    (7): Bottleneck(      (conv1): Conv2d(512, 128, kernel_size=(1, 1), stride=(1, 1), bias=False)      (bn1): BatchNorm2d(128, eps=1e-05, momentum=0.1, affine=True, track_running_stats=True)      (conv2): Conv2d(128, 128, kernel_size=(3, 3), stride=(1, 1), padding=(1, 1), bias=False)      (bn2): BatchNorm2d(128, eps=1e-05, momentum=0.1, affine=True, track_running_stats=True)      (conv3): Conv2d(128, 512, kernel_size=(1, 1), stride=(1, 1), bias=False)      (bn3): BatchNorm2d(512, eps=1e-05, momentum=0.1, affine=True, track_running_stats=True)      (relu): ReLU(inplace=True)    )  )  (layer3): Sequential(    (0): Bottleneck(      (conv1): Conv2d(512, 256, kernel_size=(1, 1), stride=(1, 1), bias=False)      (bn1): BatchNorm2d(256, eps=1e-05, momentum=0.1, affine=True, track_running_stats=True)      (conv2): Conv2d(256, 256, kernel_size=(3, 3), stride=(2, 2), padding=(1, 1), bias=False)      (bn2): BatchNorm2d(256, eps=1e-05, momentum=0.1, affine=True, track_running_stats=True)      (conv3): Conv2d(256, 1024, kernel_size=(1, 1), stride=(1, 1), bias=False)      (bn3): BatchNorm2d(1024, eps=1e-05, momentum=0.1, affine=True, track_running_stats=True)      (relu): ReLU(inplace=True)      (downsample): Sequential(        (0): Conv2d(512, 1024, kernel_size=(1, 1), stride=(2, 2), bias=False)        (1): BatchNorm2d(1024, eps=1e-05, momentum=0.1, affine=True, track_running_stats=True)      )    )    (1): Bottleneck(      (conv1): Conv2d(1024, 256, kernel_size=(1, 1), stride=(1, 1), bias=False)      (bn1): BatchNorm2d(256, eps=1e-05, momentum=0.1, affine=True, track_running_stats=True)      (conv2): Conv2d(256, 256, kernel_size=(3, 3), stride=(1, 1), padding=(1, 1), bias=False)      (bn2): BatchNorm2d(256, eps=1e-05, momentum=0.1, affine=True, track_running_stats=True)      (conv3): Conv2d(256, 1024, kernel_size=(1, 1), stride=(1, 1), bias=False)      (bn3): BatchNorm2d(1024, eps=1e-05, momentum=0.1, affine=True, track_running_stats=True)      (relu): ReLU(inplace=True)    )    (2): Bottleneck(      (conv1): Conv2d(1024, 256, kernel_size=(1, 1), stride=(1, 1), bias=False)      (bn1): BatchNorm2d(256, eps=1e-05, momentum=0.1, affine=True, track_running_stats=True)      (conv2): Conv2d(256, 256, kernel_size=(3, 3), stride=(1, 1), padding=(1, 1), bias=False)      (bn2): BatchNorm2d(256, eps=1e-05, momentum=0.1, affine=True, track_running_stats=True)      (conv3): Conv2d(256, 1024, kernel_size=(1, 1), stride=(1, 1), bias=False)      (bn3): BatchNorm2d(1024, eps=1e-05, momentum=0.1, affine=True, track_running_stats=True)      (relu): ReLU(inplace=True)    )    (3): Bottleneck(      (conv1): Conv2d(1024, 256, kernel_size=(1, 1), stride=(1, 1), bias=False)      (bn1): BatchNorm2d(256, eps=1e-05, momentum=0.1, affine=True, track_running_stats=True)      (conv2): Conv2d(256, 256, kernel_size=(3, 3), stride=(1, 1), padding=(1, 1), bias=False)      (bn2): BatchNorm2d(256, eps=1e-05, momentum=0.1, affine=True, track_running_stats=True)      (conv3): Conv2d(256, 1024, kernel_size=(1, 1), stride=(1, 1), bias=False)      (bn3): BatchNorm2d(1024, eps=1e-05, momentum=0.1, affine=True, track_running_stats=True)      (relu): ReLU(inplace=True)    )    (4): Bottleneck(      (conv1): Conv2d(1024, 256, kernel_size=(1, 1), stride=(1, 1), bias=False)      (bn1): BatchNorm2d(256, eps=1e-05, momentum=0.1, affine=True, track_running_stats=True)      (conv2): Conv2d(256, 256, kernel_size=(3, 3), stride=(1, 1), padding=(1, 1), bias=False)      (bn2): BatchNorm2d(256, eps=1e-05, momentum=0.1, affine=True, track_running_stats=True)      (conv3): Conv2d(256, 1024, kernel_size=(1, 1), stride=(1, 1), bias=False)      (bn3): BatchNorm2d(1024, eps=1e-05, momentum=0.1, affine=True, track_running_stats=True)      (relu): ReLU(inplace=True)    )    (5): Bottleneck(      (conv1): Conv2d(1024, 256, kernel_size=(1, 1), stride=(1, 1), bias=False)      (bn1): BatchNorm2d(256, eps=1e-05, momentum=0.1, affine=True, track_running_stats=True)      (conv2): Conv2d(256, 256, kernel_size=(3, 3), stride=(1, 1), padding=(1, 1), bias=False)      (bn2): BatchNorm2d(256, eps=1e-05, momentum=0.1, affine=True, track_running_stats=True)      (conv3): Conv2d(256, 1024, kernel_size=(1, 1), stride=(1, 1), bias=False)      (bn3): BatchNorm2d(1024, eps=1e-05, momentum=0.1, affine=True, track_running_stats=True)      (relu): ReLU(inplace=True)    )    (6): Bottleneck(      (conv1): Conv2d(1024, 256, kernel_size=(1, 1), stride=(1, 1), bias=False)      (bn1): BatchNorm2d(256, eps=1e-05, momentum=0.1, affine=True, track_running_stats=True)      (conv2): Conv2d(256, 256, kernel_size=(3, 3), stride=(1, 1), padding=(1, 1), bias=False)      (bn2): BatchNorm2d(256, eps=1e-05, momentum=0.1, affine=True, track_running_stats=True)      (conv3): Conv2d(256, 1024, kernel_size=(1, 1), stride=(1, 1), bias=False)      (bn3): BatchNorm2d(1024, eps=1e-05, momentum=0.1, affine=True, track_running_stats=True)      (relu): ReLU(inplace=True)    )    (7): Bottleneck(      (conv1): Conv2d(1024, 256, kernel_size=(1, 1), stride=(1, 1), bias=False)      (bn1): BatchNorm2d(256, eps=1e-05, momentum=0.1, affine=True, track_running_stats=True)      (conv2): Conv2d(256, 256, kernel_size=(3, 3), stride=(1, 1), padding=(1, 1), bias=False)      (bn2): BatchNorm2d(256, eps=1e-05, momentum=0.1, affine=True, track_running_stats=True)      (conv3): Conv2d(256, 1024, kernel_size=(1, 1), stride=(1, 1), bias=False)      (bn3): BatchNorm2d(1024, eps=1e-05, momentum=0.1, affine=True, track_running_stats=True)      (relu): ReLU(inplace=True)    )    (8): Bottleneck(      (conv1): Conv2d(1024, 256, kernel_size=(1, 1), stride=(1, 1), bias=False)      (bn1): BatchNorm2d(256, eps=1e-05, momentum=0.1, affine=True, track_running_stats=True)      (conv2): Conv2d(256, 256, kernel_size=(3, 3), stride=(1, 1), padding=(1, 1), bias=False)      (bn2): BatchNorm2d(256, eps=1e-05, momentum=0.1, affine=True, track_running_stats=True)      (conv3): Conv2d(256, 1024, kernel_size=(1, 1), stride=(1, 1), bias=False)      (bn3): BatchNorm2d(1024, eps=1e-05, momentum=0.1, affine=True, track_running_stats=True)      (relu): ReLU(inplace=True)    )    (9): Bottleneck(      (conv1): Conv2d(1024, 256, kernel_size=(1, 1), stride=(1, 1), bias=False)      (bn1): BatchNorm2d(256, eps=1e-05, momentum=0.1, affine=True, track_running_stats=True)      (conv2): Conv2d(256, 256, kernel_size=(3, 3), stride=(1, 1), padding=(1, 1), bias=False)      (bn2): BatchNorm2d(256, eps=1e-05, momentum=0.1, affine=True, track_running_stats=True)      (conv3): Conv2d(256, 1024, kernel_size=(1, 1), stride=(1, 1), bias=False)      (bn3): BatchNorm2d(1024, eps=1e-05, momentum=0.1, affine=True, track_running_stats=True)      (relu): ReLU(inplace=True)    )    (10): Bottleneck(      (conv1): Conv2d(1024, 256, kernel_size=(1, 1), stride=(1, 1), bias=False)      (bn1): BatchNorm2d(256, eps=1e-05, momentum=0.1, affine=True, track_running_stats=True)      (conv2): Conv2d(256, 256, kernel_size=(3, 3), stride=(1, 1), padding=(1, 1), bias=False)      (bn2): BatchNorm2d(256, eps=1e-05, momentum=0.1, affine=True, track_running_stats=True)      (conv3): Conv2d(256, 1024, kernel_size=(1, 1), stride=(1, 1), bias=False)      (bn3): BatchNorm2d(1024, eps=1e-05, momentum=0.1, affine=True, track_running_stats=True)      (relu): ReLU(inplace=True)    )    (11): Bottleneck(      (conv1): Conv2d(1024, 256, kernel_size=(1, 1), stride=(1, 1), bias=False)      (bn1): BatchNorm2d(256, eps=1e-05, momentum=0.1, affine=True, track_running_stats=True)      (conv2): Conv2d(256, 256, kernel_size=(3, 3), stride=(1, 1), padding=(1, 1), bias=False)      (bn2): BatchNorm2d(256, eps=1e-05, momentum=0.1, affine=True, track_running_stats=True)      (conv3): Conv2d(256, 1024, kernel_size=(1, 1), stride=(1, 1), bias=False)      (bn3): BatchNorm2d(1024, eps=1e-05, momentum=0.1, affine=True, track_running_stats=True)      (relu): ReLU(inplace=True)    )    (12): Bottleneck(      (conv1): Conv2d(1024, 256, kernel_size=(1, 1), stride=(1, 1), bias=False)      (bn1): BatchNorm2d(256, eps=1e-05, momentum=0.1, affine=True, track_running_stats=True)      (conv2): Conv2d(256, 256, kernel_size=(3, 3), stride=(1, 1), padding=(1, 1), bias=False)      (bn2): BatchNorm2d(256, eps=1e-05, momentum=0.1, affine=True, track_running_stats=True)      (conv3): Conv2d(256, 1024, kernel_size=(1, 1), stride=(1, 1), bias=False)      (bn3): BatchNorm2d(1024, eps=1e-05, momentum=0.1, affine=True, track_running_stats=True)      (relu): ReLU(inplace=True)    )    (13): Bottleneck(      (conv1): Conv2d(1024, 256, kernel_size=(1, 1), stride=(1, 1), bias=False)      (bn1): BatchNorm2d(256, eps=1e-05, momentum=0.1, affine=True, track_running_stats=True)      (conv2): Conv2d(256, 256, kernel_size=(3, 3), stride=(1, 1), padding=(1, 1), bias=False)      (bn2): BatchNorm2d(256, eps=1e-05, momentum=0.1, affine=True, track_running_stats=True)      (conv3): Conv2d(256, 1024, kernel_size=(1, 1), stride=(1, 1), bias=False)      (bn3): BatchNorm2d(1024, eps=1e-05, momentum=0.1, affine=True, track_running_stats=True)      (relu): ReLU(inplace=True)    )    (14): Bottleneck(      (conv1): Conv2d(1024, 256, kernel_size=(1, 1), stride=(1, 1), bias=False)      (bn1): BatchNorm2d(256, eps=1e-05, momentum=0.1, affine=True, track_running_stats=True)      (conv2): Conv2d(256, 256, kernel_size=(3, 3), stride=(1, 1), padding=(1, 1), bias=False)      (bn2): BatchNorm2d(256, eps=1e-05, momentum=0.1, affine=True, track_running_stats=True)      (conv3): Conv2d(256, 1024, kernel_size=(1, 1), stride=(1, 1), bias=False)      (bn3): BatchNorm2d(1024, eps=1e-05, momentum=0.1, affine=True, track_running_stats=True)      (relu): ReLU(inplace=True)    )    (15): Bottleneck(      (conv1): Conv2d(1024, 256, kernel_size=(1, 1), stride=(1, 1), bias=False)      (bn1): BatchNorm2d(256, eps=1e-05, momentum=0.1, affine=True, track_running_stats=True)      (conv2): Conv2d(256, 256, kernel_size=(3, 3), stride=(1, 1), padding=(1, 1), bias=False)      (bn2): BatchNorm2d(256, eps=1e-05, momentum=0.1, affine=True, track_running_stats=True)      (conv3): Conv2d(256, 1024, kernel_size=(1, 1), stride=(1, 1), bias=False)      (bn3): BatchNorm2d(1024, eps=1e-05, momentum=0.1, affine=True, track_running_stats=True)      (relu): ReLU(inplace=True)    )    (16): Bottleneck(      (conv1): Conv2d(1024, 256, kernel_size=(1, 1), stride=(1, 1), bias=False)      (bn1): BatchNorm2d(256, eps=1e-05, momentum=0.1, affine=True, track_running_stats=True)      (conv2): Conv2d(256, 256, kernel_size=(3, 3), stride=(1, 1), padding=(1, 1), bias=False)      (bn2): BatchNorm2d(256, eps=1e-05, momentum=0.1, affine=True, track_running_stats=True)      (conv3): Conv2d(256, 1024, kernel_size=(1, 1), stride=(1, 1), bias=False)      (bn3): BatchNorm2d(1024, eps=1e-05, momentum=0.1, affine=True, track_running_stats=True)      (relu): ReLU(inplace=True)    )    (17): Bottleneck(      (conv1): Conv2d(1024, 256, kernel_size=(1, 1), stride=(1, 1), bias=False)      (bn1): BatchNorm2d(256, eps=1e-05, momentum=0.1, affine=True, track_running_stats=True)      (conv2): Conv2d(256, 256, kernel_size=(3, 3), stride=(1, 1), padding=(1, 1), bias=False)      (bn2): BatchNorm2d(256, eps=1e-05, momentum=0.1, affine=True, track_running_stats=True)      (conv3): Conv2d(256, 1024, kernel_size=(1, 1), stride=(1, 1), bias=False)      (bn3): BatchNorm2d(1024, eps=1e-05, momentum=0.1, affine=True, track_running_stats=True)      (relu): ReLU(inplace=True)    )    (18): Bottleneck(      (conv1): Conv2d(1024, 256, kernel_size=(1, 1), stride=(1, 1), bias=False)      (bn1): BatchNorm2d(256, eps=1e-05, momentum=0.1, affine=True, track_running_stats=True)      (conv2): Conv2d(256, 256, kernel_size=(3, 3), stride=(1, 1), padding=(1, 1), bias=False)      (bn2): BatchNorm2d(256, eps=1e-05, momentum=0.1, affine=True, track_running_stats=True)      (conv3): Conv2d(256, 1024, kernel_size=(1, 1), stride=(1, 1), bias=False)      (bn3): BatchNorm2d(1024, eps=1e-05, momentum=0.1, affine=True, track_running_stats=True)      (relu): ReLU(inplace=True)    )    (19): Bottleneck(      (conv1): Conv2d(1024, 256, kernel_size=(1, 1), stride=(1, 1), bias=False)      (bn1): BatchNorm2d(256, eps=1e-05, momentum=0.1, affine=True, track_running_stats=True)      (conv2): Conv2d(256, 256, kernel_size=(3, 3), stride=(1, 1), padding=(1, 1), bias=False)      (bn2): BatchNorm2d(256, eps=1e-05, momentum=0.1, affine=True, track_running_stats=True)      (conv3): Conv2d(256, 1024, kernel_size=(1, 1), stride=(1, 1), bias=False)      (bn3): BatchNorm2d(1024, eps=1e-05, momentum=0.1, affine=True, track_running_stats=True)      (relu): ReLU(inplace=True)    )    (20): Bottleneck(      (conv1): Conv2d(1024, 256, kernel_size=(1, 1), stride=(1, 1), bias=False)      (bn1): BatchNorm2d(256, eps=1e-05, momentum=0.1, affine=True, track_running_stats=True)      (conv2): Conv2d(256, 256, kernel_size=(3, 3), stride=(1, 1), padding=(1, 1), bias=False)      (bn2): BatchNorm2d(256, eps=1e-05, momentum=0.1, affine=True, track_running_stats=True)      (conv3): Conv2d(256, 1024, kernel_size=(1, 1), stride=(1, 1), bias=False)      (bn3): BatchNorm2d(1024, eps=1e-05, momentum=0.1, affine=True, track_running_stats=True)      (relu): ReLU(inplace=True)    )    (21): Bottleneck(      (conv1): Conv2d(1024, 256, kernel_size=(1, 1), stride=(1, 1), bias=False)      (bn1): BatchNorm2d(256, eps=1e-05, momentum=0.1, affine=True, track_running_stats=True)      (conv2): Conv2d(256, 256, kernel_size=(3, 3), stride=(1, 1), padding=(1, 1), bias=False)      (bn2): BatchNorm2d(256, eps=1e-05, momentum=0.1, affine=True, track_running_stats=True)      (conv3): Conv2d(256, 1024, kernel_size=(1, 1), stride=(1, 1), bias=False)      (bn3): BatchNorm2d(1024, eps=1e-05, momentum=0.1, affine=True, track_running_stats=True)      (relu): ReLU(inplace=True)    )    (22): Bottleneck(      (conv1): Conv2d(1024, 256, kernel_size=(1, 1), stride=(1, 1), bias=False)      (bn1): BatchNorm2d(256, eps=1e-05, momentum=0.1, affine=True, track_running_stats=True)      (conv2): Conv2d(256, 256, kernel_size=(3, 3), stride=(1, 1), padding=(1, 1), bias=False)      (bn2): BatchNorm2d(256, eps=1e-05, momentum=0.1, affine=True, track_running_stats=True)      (conv3): Conv2d(256, 1024, kernel_size=(1, 1), stride=(1, 1), bias=False)      (bn3): BatchNorm2d(1024, eps=1e-05, momentum=0.1, affine=True, track_running_stats=True)      (relu): ReLU(inplace=True)    )    (23): Bottleneck(      (conv1): Conv2d(1024, 256, kernel_size=(1, 1), stride=(1, 1), bias=False)      (bn1): BatchNorm2d(256, eps=1e-05, momentum=0.1, affine=True, track_running_stats=True)      (conv2): Conv2d(256, 256, kernel_size=(3, 3), stride=(1, 1), padding=(1, 1), bias=False)      (bn2): BatchNorm2d(256, eps=1e-05, momentum=0.1, affine=True, track_running_stats=True)      (conv3): Conv2d(256, 1024, kernel_size=(1, 1), stride=(1, 1), bias=False)      (bn3): BatchNorm2d(1024, eps=1e-05, momentum=0.1, affine=True, track_running_stats=True)      (relu): ReLU(inplace=True)    )    (24): Bottleneck(      (conv1): Conv2d(1024, 256, kernel_size=(1, 1), stride=(1, 1), bias=False)      (bn1): BatchNorm2d(256, eps=1e-05, momentum=0.1, affine=True, track_running_stats=True)      (conv2): Conv2d(256, 256, kernel_size=(3, 3), stride=(1, 1), padding=(1, 1), bias=False)      (bn2): BatchNorm2d(256, eps=1e-05, momentum=0.1, affine=True, track_running_stats=True)      (conv3): Conv2d(256, 1024, kernel_size=(1, 1), stride=(1, 1), bias=False)      (bn3): BatchNorm2d(1024, eps=1e-05, momentum=0.1, affine=True, track_running_stats=True)      (relu): ReLU(inplace=True)    )    (25): Bottleneck(      (conv1): Conv2d(1024, 256, kernel_size=(1, 1), stride=(1, 1), bias=False)      (bn1): BatchNorm2d(256, eps=1e-05, momentum=0.1, affine=True, track_running_stats=True)      (conv2): Conv2d(256, 256, kernel_size=(3, 3), stride=(1, 1), padding=(1, 1), bias=False)      (bn2): BatchNorm2d(256, eps=1e-05, momentum=0.1, affine=True, track_running_stats=True)      (conv3): Conv2d(256, 1024, kernel_size=(1, 1), stride=(1, 1), bias=False)      (bn3): BatchNorm2d(1024, eps=1e-05, momentum=0.1, affine=True, track_running_stats=True)      (relu): ReLU(inplace=True)    )    (26): Bottleneck(      (conv1): Conv2d(1024, 256, kernel_size=(1, 1), stride=(1, 1), bias=False)      (bn1): BatchNorm2d(256, eps=1e-05, momentum=0.1, affine=True, track_running_stats=True)      (conv2): Conv2d(256, 256, kernel_size=(3, 3), stride=(1, 1), padding=(1, 1), bias=False)      (bn2): BatchNorm2d(256, eps=1e-05, momentum=0.1, affine=True, track_running_stats=True)      (conv3): Conv2d(256, 1024, kernel_size=(1, 1), stride=(1, 1), bias=False)      (bn3): BatchNorm2d(1024, eps=1e-05, momentum=0.1, affine=True, track_running_stats=True)      (relu): ReLU(inplace=True)    )    (27): Bottleneck(      (conv1): Conv2d(1024, 256, kernel_size=(1, 1), stride=(1, 1), bias=False)      (bn1): BatchNorm2d(256, eps=1e-05, momentum=0.1, affine=True, track_running_stats=True)      (conv2): Conv2d(256, 256, kernel_size=(3, 3), stride=(1, 1), padding=(1, 1), bias=False)      (bn2): BatchNorm2d(256, eps=1e-05, momentum=0.1, affine=True, track_running_stats=True)      (conv3): Conv2d(256, 1024, kernel_size=(1, 1), stride=(1, 1), bias=False)      (bn3): BatchNorm2d(1024, eps=1e-05, momentum=0.1, affine=True, track_running_stats=True)      (relu): ReLU(inplace=True)    )    (28): Bottleneck(      (conv1): Conv2d(1024, 256, kernel_size=(1, 1), stride=(1, 1), bias=False)      (bn1): BatchNorm2d(256, eps=1e-05, momentum=0.1, affine=True, track_running_stats=True)      (conv2): Conv2d(256, 256, kernel_size=(3, 3), stride=(1, 1), padding=(1, 1), bias=False)      (bn2): BatchNorm2d(256, eps=1e-05, momentum=0.1, affine=True, track_running_stats=True)      (conv3): Conv2d(256, 1024, kernel_size=(1, 1), stride=(1, 1), bias=False)      (bn3): BatchNorm2d(1024, eps=1e-05, momentum=0.1, affine=True, track_running_stats=True)      (relu): ReLU(inplace=True)    )    (29): Bottleneck(      (conv1): Conv2d(1024, 256, kernel_size=(1, 1), stride=(1, 1), bias=False)      (bn1): BatchNorm2d(256, eps=1e-05, momentum=0.1, affine=True, track_running_stats=True)      (conv2): Conv2d(256, 256, kernel_size=(3, 3), stride=(1, 1), padding=(1, 1), bias=False)      (bn2): BatchNorm2d(256, eps=1e-05, momentum=0.1, affine=True, track_running_stats=True)      (conv3): Conv2d(256, 1024, kernel_size=(1, 1), stride=(1, 1), bias=False)      (bn3): BatchNorm2d(1024, eps=1e-05, momentum=0.1, affine=True, track_running_stats=True)      (relu): ReLU(inplace=True)    )    (30): Bottleneck(      (conv1): Conv2d(1024, 256, kernel_size=(1, 1), stride=(1, 1), bias=False)      (bn1): BatchNorm2d(256, eps=1e-05, momentum=0.1, affine=True, track_running_stats=True)      (conv2): Conv2d(256, 256, kernel_size=(3, 3), stride=(1, 1), padding=(1, 1), bias=False)      (bn2): BatchNorm2d(256, eps=1e-05, momentum=0.1, affine=True, track_running_stats=True)      (conv3): Conv2d(256, 1024, kernel_size=(1, 1), stride=(1, 1), bias=False)      (bn3): BatchNorm2d(1024, eps=1e-05, momentum=0.1, affine=True, track_running_stats=True)      (relu): ReLU(inplace=True)    )    (31): Bottleneck(      (conv1): Conv2d(1024, 256, kernel_size=(1, 1), stride=(1, 1), bias=False)      (bn1): BatchNorm2d(256, eps=1e-05, momentum=0.1, affine=True, track_running_stats=True)      (conv2): Conv2d(256, 256, kernel_size=(3, 3), stride=(1, 1), padding=(1, 1), bias=False)      (bn2): BatchNorm2d(256, eps=1e-05, momentum=0.1, affine=True, track_running_stats=True)      (conv3): Conv2d(256, 1024, kernel_size=(1, 1), stride=(1, 1), bias=False)      (bn3): BatchNorm2d(1024, eps=1e-05, momentum=0.1, affine=True, track_running_stats=True)      (relu): ReLU(inplace=True)    )    (32): Bottleneck(      (conv1): Conv2d(1024, 256, kernel_size=(1, 1), stride=(1, 1), bias=False)      (bn1): BatchNorm2d(256, eps=1e-05, momentum=0.1, affine=True, track_running_stats=True)      (conv2): Conv2d(256, 256, kernel_size=(3, 3), stride=(1, 1), padding=(1, 1), bias=False)      (bn2): BatchNorm2d(256, eps=1e-05, momentum=0.1, affine=True, track_running_stats=True)      (conv3): Conv2d(256, 1024, kernel_size=(1, 1), stride=(1, 1), bias=False)      (bn3): BatchNorm2d(1024, eps=1e-05, momentum=0.1, affine=True, track_running_stats=True)      (relu): ReLU(inplace=True)    )    (33): Bottleneck(      (conv1): Conv2d(1024, 256, kernel_size=(1, 1), stride=(1, 1), bias=False)      (bn1): BatchNorm2d(256, eps=1e-05, momentum=0.1, affine=True, track_running_stats=True)      (conv2): Conv2d(256, 256, kernel_size=(3, 3), stride=(1, 1), padding=(1, 1), bias=False)      (bn2): BatchNorm2d(256, eps=1e-05, momentum=0.1, affine=True, track_running_stats=True)      (conv3): Conv2d(256, 1024, kernel_size=(1, 1), stride=(1, 1), bias=False)      (bn3): BatchNorm2d(1024, eps=1e-05, momentum=0.1, affine=True, track_running_stats=True)      (relu): ReLU(inplace=True)    )    (34): Bottleneck(      (conv1): Conv2d(1024, 256, kernel_size=(1, 1), stride=(1, 1), bias=False)      (bn1): BatchNorm2d(256, eps=1e-05, momentum=0.1, affine=True, track_running_stats=True)      (conv2): Conv2d(256, 256, kernel_size=(3, 3), stride=(1, 1), padding=(1, 1), bias=False)      (bn2): BatchNorm2d(256, eps=1e-05, momentum=0.1, affine=True, track_running_stats=True)      (conv3): Conv2d(256, 1024, kernel_size=(1, 1), stride=(1, 1), bias=False)      (bn3): BatchNorm2d(1024, eps=1e-05, momentum=0.1, affine=True, track_running_stats=True)      (relu): ReLU(inplace=True)    )    (35): Bottleneck(      (conv1): Conv2d(1024, 256, kernel_size=(1, 1), stride=(1, 1), bias=False)      (bn1): BatchNorm2d(256, eps=1e-05, momentum=0.1, affine=True, track_running_stats=True)      (conv2): Conv2d(256, 256, kernel_size=(3, 3), stride=(1, 1), padding=(1, 1), bias=False)      (bn2): BatchNorm2d(256, eps=1e-05, momentum=0.1, affine=True, track_running_stats=True)      (conv3): Conv2d(256, 1024, kernel_size=(1, 1), stride=(1, 1), bias=False)      (bn3): BatchNorm2d(1024, eps=1e-05, momentum=0.1, affine=True, track_running_stats=True)      (relu): ReLU(inplace=True)    )  )  (layer4): Sequential(    (0): Bottleneck(      (conv1): Conv2d(1024, 512, kernel_size=(1, 1), stride=(1, 1), bias=False)      (bn1): BatchNorm2d(512, eps=1e-05, momentum=0.1, affine=True, track_running_stats=True)      (conv2): Conv2d(512, 512, kernel_size=(3, 3), stride=(2, 2), padding=(1, 1), bias=False)      (bn2): BatchNorm2d(512, eps=1e-05, momentum=0.1, affine=True, track_running_stats=True)      (conv3): Conv2d(512, 2048, kernel_size=(1, 1), stride=(1, 1), bias=False)      (bn3): BatchNorm2d(2048, eps=1e-05, momentum=0.1, affine=True, track_running_stats=True)      (relu): ReLU(inplace=True)      (downsample): Sequential(        (0): Conv2d(1024, 2048, kernel_size=(1, 1), stride=(2, 2), bias=False)        (1): BatchNorm2d(2048, eps=1e-05, momentum=0.1, affine=True, track_running_stats=True)      )    )    (1): Bottleneck(      (conv1): Conv2d(2048, 512, kernel_size=(1, 1), stride=(1, 1), bias=False)      (bn1): BatchNorm2d(512, eps=1e-05, momentum=0.1, affine=True, track_running_stats=True)      (conv2): Conv2d(512, 512, kernel_size=(3, 3), stride=(1, 1), padding=(1, 1), bias=False)      (bn2): BatchNorm2d(512, eps=1e-05, momentum=0.1, affine=True, track_running_stats=True)      (conv3): Conv2d(512, 2048, kernel_size=(1, 1), stride=(1, 1), bias=False)      (bn3): BatchNorm2d(2048, eps=1e-05, momentum=0.1, affine=True, track_running_stats=True)      (relu): ReLU(inplace=True)    )    (2): Bottleneck(      (conv1): Conv2d(2048, 512, kernel_size=(1, 1), stride=(1, 1), bias=False)      (bn1): BatchNorm2d(512, eps=1e-05, momentum=0.1, affine=True, track_running_stats=True)      (conv2): Conv2d(512, 512, kernel_size=(3, 3), stride=(1, 1), padding=(1, 1), bias=False)      (bn2): BatchNorm2d(512, eps=1e-05, momentum=0.1, affine=True, track_running_stats=True)      (conv3): Conv2d(512, 2048, kernel_size=(1, 1), stride=(1, 1), bias=False)      (bn3): BatchNorm2d(2048, eps=1e-05, momentum=0.1, affine=True, track_running_stats=True)      (relu): ReLU(inplace=True)    )  )  (avgpool): AdaptiveAvgPool2d(output_size=(1, 1))  (fc): Linear(in_features=2048, out_features=1000, bias=True))</code></pre><h3 id="参考pytorch官网例子"><a href="#参考pytorch官网例子" class="headerlink" title="参考pytorch官网例子"></a>参考pytorch官网例子</h3><figure class="highlight python"><table><tr><td class="gutter"><pre><span class="line">1</span><br><span class="line">2</span><br><span class="line">3</span><br><span class="line">4</span><br><span class="line">5</span><br><span
…
word">in</span> model_ft.named_parameters():</span><br><span class="line">        <span class="keyword">if</span> param.requires_grad == <span class="keyword">True</span>:</span><br><span class="line">            print(<span class="string">"\t"</span>,name)</span><br></pre></td></tr></table></figure><pre><code>Params to learn:     fc.0.weight     fc.0.bias</code></pre><figure class="highlight python"><table><tr><td class="gutter"><pre><span class="line">1</span><br></pre></td><td class="code"><pre><span class="line">model_ft</span><br></pre></td></tr></table></figure><pre><code>ResNet(  (conv1): Conv2d(3, 64, kernel_size=(7, 7), stride=(2, 2), padding=(3, 3), bias=False)  (bn1): BatchNorm2d(64, eps=1e-05, momentum=0.1, affine=True, track_running_stats=True)  (relu): ReLU(inplace=True)  (maxpool): MaxPool2d(kernel_size=3, stride=2, padding=1, dilation=1, ceil_mode=False)  (layer1): Sequential(    (0): Bottleneck(      (conv1): Conv2d(64, 64, kernel_size=(1, 1), stride=(1, 1), bias=False)      (bn1): BatchNorm2d(64, eps=1e-05, momentum=0.1, affine=True, track_running_stats=True)      (conv2): Conv2d(64, 64, kernel_size=(3, 3), stride=(1, 1), padding=(1, 1), bias=False)      (bn2): BatchNorm2d(64, eps=1e-05, momentum=0.1, affine=True, track_running_stats=True)      (conv3): Conv2d(64, 256, kernel_size=(1, 1), stride=(1, 1), bias=False)      (bn3): BatchNorm2d(256, eps=1e-05, momentum=0.1, affine=True, track_running_stats=True)      (relu): ReLU(inplace=True)      (downsample): Sequential(        (0): Conv2d(64, 256, kernel_size=(1, 1), stride=(1, 1), bias=False)        (1): BatchNorm2d(256, eps=1e-05, momentum=0.1, affine=True, track_running_stats=True)      )    )    (1): Bottleneck(      (conv1): Conv2d(256, 64, kernel_size=(1, 1), stride=(1, 1), bias=False)      (bn1): BatchNorm2d(64, eps=1e-05, momentum=0.1, affine=True, track_running_stats=True)      (conv2): Conv2d(64, 64, kernel_size=(3, 3), stride=(1, 1), padding=(1, 1), bias=False)      (bn2): BatchNorm2d(64, eps=1e-05, momentum=0.1, affine=True, track_running_stats=True)      (conv3): Conv2d(64, 256, kernel_size=(1, 1), stride=(1, 1), bias=False)      (bn3): BatchNorm2d(256, eps=1e-05, momentum=0.1, affine=True, track_running_stats=True)      (relu): ReLU(inplace=True)    )    (2): Bottleneck(      (conv1): Conv2d(256, 64, kernel_size=(1, 1), stride=(1, 1), bias=False)      (bn1): BatchNorm2d(64, eps=1e-05, momentum=0.1, affine=True, track_running_stats=True)      (conv2): Conv2d(64, 64, kernel_size=(3, 3), stride=(1, 1), padding=(1, 1), bias=False)      (bn2): BatchNorm2d(64, eps=1e-05, momentum=0.1, affine=True, track_running_stats=True)      (conv3): Conv2d(64, 256, kernel_size=(1, 1), stride=(1, 1), bias=False)      (bn3): BatchNorm2d(256, eps=1e-05, momentum=0.1, affine=True, track_running_stats=True)      (relu): ReLU(inplace=True)    )  )  (layer2): Sequential(    (0): Bottleneck(      (conv1): Conv2d(256, 128, kernel_size=(1, 1), stride=(1, 1), bias=False)      (bn1): BatchNorm2d(128, eps=1e-05, momentum=0.1, affine=True, track_running_stats=True)      (conv2): Conv2d(128, 128, kernel_size=(3, 3), stride=(2, 2), padding=(1, 1), bias=False)      (bn2): BatchNorm2d(128, eps=1e-05, momentum=0.1, affine=True, track_running_stats=True)      (conv3): Conv2d(128, 512, kernel_size=(1, 1), stride=(1, 1), bias=False)      (bn3): BatchNorm2d(512, eps=1e-05, momentum=0.1, affine=True, track_running_stats=True)      (relu): ReLU(inplace=True)      (downsample): Sequential(        (0): Conv2d(256, 512, kernel_size=(1, 1), stride=(2, 2), bias=False)        (1): BatchNorm2d(512, eps=1e-05, momentum=0.1, affine=True, track_running_stats=True)      )    )    (1): Bottleneck(      (conv1): Conv2d(512, 128, kernel_size=(1, 1), stride=(1, 1), bias=False)      (bn1): BatchNorm2d(128, eps=1e-05, momentum=0.1, affine=True, track_running_stats=True)      (conv2): Conv2d(128, 128, kernel_size=(3, 3), stride=(1, 1), padding=(1, 1), bias=False)      (bn2): BatchNorm2d(128, eps=1e-05, momentum=0.1, affine=True, track_running_stats=True)      (conv3): Conv2d(128, 512, kernel_size=(1, 1), stride=(1, 1), bias=False)      (bn3): BatchNorm2d(512, eps=1e-05, momentum=0.1, affine=True, track_running_stats=True)      (relu): ReLU(inplace=True)    )    (2): Bottleneck(      (conv1): Conv2d(512, 128, kernel_size=(1, 1), stride=(1, 1), bias=False)      (bn1): BatchNorm2d(128, eps=1e-05, momentum=0.1, affine=True, track_running_stats=True)      (conv2): Conv2d(128, 128, kernel_size=(3, 3), stride=(1, 1), padding=(1, 1), bias=False)      (bn2): BatchNorm2d(128, eps=1e-05, momentum=0.1, affine=True, track_running_stats=True)      (conv3): Conv2d(128, 512, kernel_size=(1, 1), stride=(1, 1), bias=False)      (bn3): BatchNorm2d(512, eps=1e-05, momentum=0.1, affine=True, track_running_stats=True)      (relu): ReLU(inplace=True)    )    (3): Bottleneck(      (conv1): Conv2d(512, 128, kernel_size=(1, 1), stride=(1, 1), bias=False)      (bn1): BatchNorm2d(128, eps=1e-05, momentum=0.1, affine=True, track_running_stats=True)      (conv2): Conv2d(128, 128, kernel_size=(3, 3), stride=(1, 1), padding=(1, 1), bias=False)      (bn2): BatchNorm2d(128, eps=1e-05, momentum=0.1, affine=True, track_running_stats=True)      (conv3): Conv2d(128, 512, kernel_size=(1, 1), stride=(1, 1), bias=False)      (bn3): BatchNorm2d(512, eps=1e-05, momentum=0.1, affine=True, track_running_stats=True)      (relu): ReLU(inplace=True)    )    (4): Bottleneck(      (conv1): Conv2d(512, 128, kernel_size=(1, 1), stride=(1, 1), bias=False)      (bn1): BatchNorm2d(128, eps=1e-05, momentum=0.1, affine=True, track_running_stats=True)      (conv2): Conv2d(128, 128, kernel_size=(3, 3), stride=(1, 1), padding=(1, 1), bias=False)      (bn2): BatchNorm2d(128, eps=1e-05, momentum=0.1, affine=True, track_running_stats=True)      (conv3): Conv2d(128, 512, kernel_size=(1, 1), stride=(1, 1), bias=False)      (bn3): BatchNorm2d(512, eps=1e-05, momentum=0.1, affine=True, track_running_stats=True)      (relu): ReLU(inplace=True)    )    (5): Bottleneck(      (conv1): Conv2d(512, 128, kernel_size=(1, 1), stride=(1, 1), bias=False)      (bn1): BatchNorm2d(128, eps=1e-05, momentum=0.1, affine=True, track_running_stats=True)      (conv2): Conv2d(128, 128, kernel_size=(3, 3), stride=(1, 1), padding=(1, 1), bias=False)      (bn2): BatchNorm2d(128, eps=1e-05, momentum=0.1, affine=True, track_running_stats=True)      (conv3): Conv2d(128, 512, kernel_size=(1, 1), stride=(1, 1), bias=False)      (bn3): BatchNorm2d(512, eps=1e-05, momentum=0.1, affine=True, track_running_stats=True)      (relu): ReLU(inplace=True)    )    (6): Bottleneck(      (conv1): Conv2d(512, 128, kernel_size=(1, 1), stride=(1, 1), bias=False)      (bn1): BatchNorm2d(128, eps=1e-05, momentum=0.1, affine=True, track_running_stats=True)      (conv2): Conv2d(128, 128, kernel_size=(3, 3), stride=(1, 1), padding=(1, 1), bias=False)      (bn2): BatchNorm2d(128, eps=1e-05, momentum=0.1, affine=True, track_running_stats=True)      (conv3): Conv2d(128, 512, kernel_size=(1, 1), stride=(1, 1), bias=False)      (bn3): BatchNorm2d(512, eps=1e-05, momentum=0.1, affine=True, track_running_stats=True)      (relu): ReLU(inplace=True)    )    (7): Bottleneck(      (conv1): Conv2d(512, 128, kernel_size=(1, 1), stride=(1, 1), bias=False)      (bn1): BatchNorm2d(128, eps=1e-05, momentum=0.1, affine=True, track_running_stats=True)      (conv2): Conv2d(128, 128, kernel_size=(3, 3), stride=(1, 1), padding=(1, 1), bias=False)      (bn2): BatchNorm2d(128, eps=1e-05, momentum=0.1, affine=True, track_running_stats=True)      (conv3): Conv2d(128, 512, kernel_size=(1, 1), stride=(1, 1), bias=False)      (bn3): BatchNorm2d(512, eps=1e-05, momentum=0.1, affine=True, track_running_stats=True)      (relu): ReLU(inplace=True)    )  )  (layer3): Sequential(    (0): Bottleneck(      (conv1): Conv2d(512, 256, kernel_size=(1, 1), stride=(1, 1), bias=False)      (bn1): BatchNorm2d(256, eps=1e-05, momentum=0.1, affine=True, track_running_stats=True)      (conv2): Conv2d(256, 256, kernel_size=(3, 3), stride=(2, 2), padding=(1, 1), bias=False)      (bn2): BatchNorm2d(256, eps=1e-05, momentum=0.1, affine=True, track_running_stats=True)      (conv3): Conv2d(256, 1024, kernel_size=(1, 1), stride=(1, 1), bias=False)      (bn3): BatchNorm2d(1024, eps=1e-05, momentum=0.1, affine=True, track_running_stats=True)      (relu): ReLU(inplace=True)      (downsample): Sequential(        (0): Conv2d(512, 1024, kernel_size=(1, 1), stride=(2, 2), bias=False)        (1): BatchNorm2d(1024, eps=1e-05, momentum=0.1, affine=True, track_running_stats=True)      )    )    (1): Bottleneck(      (conv1): Conv2d(1024, 256, kernel_size=(1, 1), stride=(1, 1), bias=False)      (bn1): BatchNorm2d(256, eps=1e-05, momentum=0.1, affine=True, track_running_stats=True)      (conv2): Conv2d(256, 256, kernel_size=(3, 3), stride=(1, 1), padding=(1, 1), bias=False)      (bn2): BatchNorm2d(256, eps=1e-05, momentum=0.1, affine=True, track_running_stats=True)      (conv3): Conv2d(256, 1024, kernel_size=(1, 1), stride=(1, 1), bias=False)      (bn3): BatchNorm2d(1024, eps=1e-05, momentum=0.1, affine=True, track_running_stats=True)      (relu): ReLU(inplace=True)    )    (2): Bottleneck(      (conv1): Conv2d(1024, 256, kernel_size=(1, 1), stride=(1, 1), bias=False)      (bn1): BatchNorm2d(256, eps=1e-05, momentum=0.1, affine=True, track_running_stats=True)      (conv2): Conv2d(256, 256, kernel_size=(3, 3), stride=(1, 1), padding=(1, 1), bias=False)      (bn2): BatchNorm2d(256, eps=1e-05, momentum=0.1, affine=True, track_running_stats=True)      (conv3): Conv2d(256, 1024, kernel_size=(1, 1), stride=(1, 1), bias=False)      (bn3): BatchNorm2d(1024, eps=1e-05, momentum=0.1, affine=True, track_running_stats=True)      (relu): ReLU(inplace=True)    )    (3): Bottleneck(      (conv1): Conv2d(1024, 256, kernel_size=(1, 1), stride=(1, 1), bias=False)      (bn1): BatchNorm2d(256, eps=1e-05, momentum=0.1, affine=True, track_running_stats=True)      (conv2): Conv2d(256, 256, kernel_size=(3, 3), stride=(1, 1), padding=(1, 1), bias=False)      (bn2): BatchNorm2d(256, eps=1e-05, momentum=0.1, affine=True, track_running_stats=True)      (conv3): Conv2d(256, 1024, kernel_size=(1, 1), stride=(1, 1), bias=False)      (bn3): BatchNorm2d(1024, eps=1e-05, momentum=0.1, affine=True, track_running_stats=True)      (relu): ReLU(inplace=True)    )    (4): Bottleneck(      (conv1): Conv2d(1024, 256, kernel_size=(1, 1), stride=(1, 1), bias=False)      (bn1): BatchNorm2d(256, eps=1e-05, momentum=0.1, affine=True, track_running_stats=True)      (conv2): Conv2d(256, 256, kernel_size=(3, 3), stride=(1, 1), padding=(1, 1), bias=False)      (bn2): BatchNorm2d(256, eps=1e-05, momentum=0.1, affine=True, track_running_stats=True)      (conv3): Conv2d(256, 1024, kernel_size=(1, 1), stride=(1, 1), bias=False)      (bn3): BatchNorm2d(1024, eps=1e-05, momentum=0.1, affine=True, track_running_stats=True)      (relu): ReLU(inplace=True)    )    (5): Bottleneck(      (conv1): Conv2d(1024, 256, kernel_size=(1, 1), stride=(1, 1), bias=False)      (bn1): BatchNorm2d(256, eps=1e-05, momentum=0.1, affine=True, track_running_stats=True)      (conv2): Conv2d(256, 256, kernel_size=(3, 3), stride=(1, 1), padding=(1, 1), bias=False)      (bn2): BatchNorm2d(256, eps=1e-05, momentum=0.1, affine=True, track_running_stats=True)      (conv3): Conv2d(256, 1024, kernel_size=(1, 1), stride=(1, 1), bias=False)      (bn3): BatchNorm2d(1024, eps=1e-05, momentum=0.1, affine=True, track_running_stats=True)      (relu): ReLU(inplace=True)    )    (6): Bottleneck(      (conv1): Conv2d(1024, 256, kernel_size=(1, 1), stride=(1, 1), bias=False)      (bn1): BatchNorm2d(256, eps=1e-05, momentum=0.1, affine=True, track_running_stats=True)      (conv2): Conv2d(256, 256, kernel_size=(3, 3), stride=(1, 1), padding=(1, 1), bias=False)      (bn2): BatchNorm2d(256, eps=1e-05, momentum=0.1, affine=True, track_running_stats=True)      (conv3): Conv2d(256, 1024, kernel_size=(1, 1), stride=(1, 1), bias=False)      (bn3): BatchNorm2d(1024, eps=1e-05, momentum=0.1, affine=True, track_running_stats=True)      (relu): ReLU(inplace=True)    )    (7): Bottleneck(      (conv1): Conv2d(1024, 256, kernel_size=(1, 1), stride=(1, 1), bias=False)      (bn1): BatchNorm2d(256, eps=1e-05, momentum=0.1, affine=True, track_running_stats=True)      (conv2): Conv2d(256, 256, kernel_size=(3, 3), stride=(1, 1), padding=(1, 1), bias=False)      (bn2): BatchNorm2d(256, eps=1e-05, momentum=0.1, affine=True, track_running_stats=True)      (conv3): Conv2d(256, 1024, kernel_size=(1, 1), stride=(1, 1), bias=False)      (bn3): BatchNorm2d(1024, eps=1e-05, momentum=0.1, affine=True, track_running_stats=True)      (relu): ReLU(inplace=True)    )    (8): Bottleneck(      (conv1): Conv2d(1024, 256, kernel_size=(1, 1), stride=(1, 1), bias=False)      (bn1): BatchNorm2d(256, eps=1e-05, momentum=0.1, affine=True, track_running_stats=True)      (conv2): Conv2d(256, 256, kernel_size=(3, 3), stride=(1, 1), padding=(1, 1), bias=False)      (bn2): BatchNorm2d(256, eps=1e-05, momentum=0.1, affine=True, track_running_stats=True)      (conv3): Conv2d(256, 1024, kernel_size=(1, 1), stride=(1, 1), bias=False)      (bn3): BatchNorm2d(1024, eps=1e-05, momentum=0.1, affine=True, track_running_stats=True)      (relu): ReLU(inplace=True)    )    (9): Bottleneck(      (conv1): Conv2d(1024, 256, kernel_size=(1, 1), stride=(1, 1), bias=False)      (bn1): BatchNorm2d(256, eps=1e-05, momentum=0.1, affine=True, track_running_stats=True)      (conv2): Conv2d(256, 256, kernel_size=(3, 3), stride=(1, 1), padding=(1, 1), bias=False)      (bn2): BatchNorm2d(256, eps=1e-05, momentum=0.1, affine=True, track_running_stats=True)      (conv3): Conv2d(256, 1024, kernel_size=(1, 1), stride=(1, 1), bias=False)      (bn3): BatchNorm2d(1024, eps=1e-05, momentum=0.1, affine=True, track_running_stats=True)      (relu): ReLU(inplace=True)    )    (10): Bottleneck(      (conv1): Conv2d(1024, 256, kernel_size=(1, 1), stride=(1, 1), bias=False)      (bn1): BatchNorm2d(256, eps=1e-05, momentum=0.1, affine=True, track_running_stats=True)      (conv2): Conv2d(256, 256, kernel_size=(3, 3), stride=(1, 1), padding=(1, 1), bias=False)      (bn2): BatchNorm2d(256, eps=1e-05, momentum=0.1, affine=True, track_running_stats=True)      (conv3): Conv2d(256, 1024, kernel_size=(1, 1), stride=(1, 1), bias=False)      (bn3): BatchNorm2d(1024, eps=1e-05, momentum=0.1, affine=True, track_running_stats=True)      (relu): ReLU(inplace=True)    )    (11): Bottleneck(      (conv1): Conv2d(1024, 256, kernel_size=(1, 1), stride=(1, 1), bias=False)      (bn1): BatchNorm2d(256, eps=1e-05, momentum=0.1, affine=True, track_running_stats=True)      (conv2): Conv2d(256, 256, kernel_size=(3, 3), stride=(1, 1), padding=(1, 1), bias=False)      (bn2): BatchNorm2d(256, eps=1e-05, momentum=0.1, affine=True, track_running_stats=True)      (conv3): Conv2d(256, 1024, kernel_size=(1, 1), stride=(1, 1), bias=False)      (bn3): BatchNorm2d(1024, eps=1e-05, momentum=0.1, affine=True, track_running_stats=True)      (relu): ReLU(inplace=True)    )    (12): Bottleneck(      (conv1): Conv2d(1024, 256, kernel_size=(1, 1), stride=(1, 1), bias=False)      (bn1): BatchNorm2d(256, eps=1e-05, momentum=0.1, affine=True, track_running_stats=True)      (conv2): Conv2d(256, 256, kernel_size=(3, 3), stride=(1, 1), padding=(1, 1), bias=False)      (bn2): BatchNorm2d(256, eps=1e-05, momentum=0.1, affine=True, track_running_stats=True)      (conv3): Conv2d(256, 1024, kernel_size=(1, 1), stride=(1, 1), bias=False)      (bn3): BatchNorm2d(1024, eps=1e-05, momentum=0.1, affine=True, track_running_stats=True)      (relu): ReLU(inplace=True)    )    (13): Bottleneck(      (conv1): Conv2d(1024, 256, kernel_size=(1, 1), stride=(1, 1), bias=False)      (bn1): BatchNorm2d(256, eps=1e-05, momentum=0.1, affine=True, track_running_stats=True)      (conv2): Conv2d(256, 256, kernel_size=(3, 3), stride=(1, 1), padding=(1, 1), bias=False)      (bn2): BatchNorm2d(256, eps=1e-05, momentum=0.1, affine=True, track_running_stats=True)      (conv3): Conv2d(256, 1024, kernel_size=(1, 1), stride=(1, 1), bias=False)      (bn3): BatchNorm2d(1024, eps=1e-05, momentum=0.1, affine=True, track_running_stats=True)      (relu): ReLU(inplace=True)    )    (14): Bottleneck(      (conv1): Conv2d(1024, 256, kernel_size=(1, 1), stride=(1, 1), bias=False)      (bn1): BatchNorm2d(256, eps=1e-05, momentum=0.1, affine=True, track_running_stats=True)      (conv2): Conv2d(256, 256, kernel_size=(3, 3), stride=(1, 1), padding=(1, 1), bias=False)      (bn2): BatchNorm2d(256, eps=1e-05, momentum=0.1, affine=True, track_running_stats=True)      (conv3): Conv2d(256, 1024, kernel_size=(1, 1), stride=(1, 1), bias=False)      (bn3): BatchNorm2d(1024, eps=1e-05, momentum=0.1, affine=True, track_running_stats=True)      (relu): ReLU(inplace=True)    )    (15): Bottleneck(      (conv1): Conv2d(1024, 256, kernel_size=(1, 1), stride=(1, 1), bias=False)      (bn1): BatchNorm2d(256, eps=1e-05, momentum=0.1, affine=True, track_running_stats=True)      (conv2): Conv2d(256, 256, kernel_size=(3, 3), stride=(1, 1), padding=(1, 1), bias=False)      (bn2): BatchNorm2d(256, eps=1e-05, momentum=0.1, affine=True, track_running_stats=True)      (conv3): Conv2d(256, 1024, kernel_size=(1, 1), stride=(1, 1), bias=False)      (bn3): BatchNorm2d(1024, eps=1e-05, momentum=0.1, affine=True, track_running_stats=True)      (relu): ReLU(inplace=True)    )    (16): Bottleneck(      (conv1): Conv2d(1024, 256, kernel_size=(1, 1), stride=(1, 1), bias=False)      (bn1): BatchNorm2d(256, eps=1e-05, momentum=0.1, affine=True, track_running_stats=True)      (conv2): Conv2d(256, 256, kernel_size=(3, 3), stride=(1, 1), padding=(1, 1), bias=False)      (bn2): BatchNorm2d(256, eps=1e-05, momentum=0.1, affine=True, track_running_stats=True)      (conv3): Conv2d(256, 1024, kernel_size=(1, 1), stride=(1, 1), bias=False)      (bn3): BatchNorm2d(1024, eps=1e-05, momentum=0.1, affine=True, track_running_stats=True)      (relu): ReLU(inplace=True)    )    (17): Bottleneck(      (conv1): Conv2d(1024, 256, kernel_size=(1, 1), stride=(1, 1), bias=False)      (bn1): BatchNorm2d(256, eps=1e-05, momentum=0.1, affine=True, track_running_stats=True)      (conv2): Conv2d(256, 256, kernel_size=(3, 3), stride=(1, 1), padding=(1, 1), bias=False)      (bn2): BatchNorm2d(256, eps=1e-05, momentum=0.1, affine=True, track_running_stats=True)      (conv3): Conv2d(256, 1024, kernel_size=(1, 1), stride=(1, 1), bias=False)      (bn3): BatchNorm2d(1024, eps=1e-05, momentum=0.1, affine=True, track_running_stats=True)      (relu): ReLU(inplace=True)    )    (18): Bottleneck(      (conv1): Conv2d(1024, 256, kernel_size=(1, 1), stride=(1, 1), bias=False)      (bn1): BatchNorm2d(256, eps=1e-05, momentum=0.1, affine=True, track_running_stats=True)      (conv2): Conv2d(256, 256, kernel_size=(3, 3), stride=(1, 1), padding=(1, 1), bias=False)      (bn2): BatchNorm2d(256, eps=1e-05, momentum=0.1, affine=True, track_running_stats=True)      (conv3): Conv2d(256, 1024, kernel_size=(1, 1), stride=(1, 1), bias=False)      (bn3): BatchNorm2d(1024, eps=1e-05, momentum=0.1, affine=True, track_running_stats=True)      (relu): ReLU(inplace=True)    )    (19): Bottleneck(      (conv1): Conv2d(1024, 256, kernel_size=(1, 1), stride=(1, 1), bias=False)      (bn1): BatchNorm2d(256, eps=1e-05, momentum=0.1, affine=True, track_running_stats=True)      (conv2): Conv2d(256, 256, kernel_size=(3, 3), stride=(1, 1), padding=(1, 1), bias=False)      (bn2): BatchNorm2d(256, eps=1e-05, momentum=0.1, affine=True, track_running_stats=True)      (conv3): Conv2d(256, 1024, kernel_size=(1, 1), stride=(1, 1), bias=False)      (bn3): BatchNorm2d(1024, eps=1e-05, momentum=0.1, affine=True, track_running_stats=True)      (relu): ReLU(inplace=True)    )    (20): Bottleneck(      (conv1): Conv2d(1024, 256, kernel_size=(1, 1), stride=(1, 1), bias=False)      (bn1): BatchNorm2d(256, eps=1e-05, momentum=0.1, affine=True, track_running_stats=True)      (conv2): Conv2d(256, 256, kernel_size=(3, 3), stride=(1, 1), padding=(1, 1), bias=False)      (bn2): BatchNorm2d(256, eps=1e-05, momentum=0.1, affine=True, track_running_stats=True)      (conv3): Conv2d(256, 1024, kernel_size=(1, 1), stride=(1, 1), bias=False)      (bn3): BatchNorm2d(1024, eps=1e-05, momentum=0.1, affine=True, track_running_stats=True)      (relu): ReLU(inplace=True)    )    (21): Bottleneck(      (conv1): Conv2d(1024, 256, kernel_size=(1, 1), stride=(1, 1), bias=False)      (bn1): BatchNorm2d(256, eps=1e-05, momentum=0.1, affine=True, track_running_stats=True)      (conv2): Conv2d(256, 256, kernel_size=(3, 3), stride=(1, 1), padding=(1, 1), bias=False)      (bn2): BatchNorm2d(256, eps=1e-05, momentum=0.1, affine=True, track_running_stats=True)      (conv3): Conv2d(256, 1024, kernel_size=(1, 1), stride=(1, 1), bias=False)      (bn3): BatchNorm2d(1024, eps=1e-05, momentum=0.1, affine=True, track_running_stats=True)      (relu): ReLU(inplace=True)    )    (22): Bottleneck(      (conv1): Conv2d(1024, 256, kernel_size=(1, 1), stride=(1, 1), bias=False)      (bn1): BatchNorm2d(256, eps=1e-05, momentum=0.1, affine=True, track_running_stats=True)      (conv2): Conv2d(256, 256, kernel_size=(3, 3), stride=(1, 1), padding=(1, 1), bias=False)      (bn2): BatchNorm2d(256, eps=1e-05, momentum=0.1, affine=True, track_running_stats=True)      (conv3): Conv2d(256, 1024, kernel_size=(1, 1), stride=(1, 1), bias=False)      (bn3): BatchNorm2d(1024, eps=1e-05, momentum=0.1, affine=True, track_running_stats=True)      (relu): ReLU(inplace=True)    )    (23): Bottleneck(      (conv1): Conv2d(1024, 256, kernel_size=(1, 1), stride=(1, 1), bias=False)      (bn1): BatchNorm2d(256, eps=1e-05, momentum=0.1, affine=True, track_running_stats=True)      (conv2): Conv2d(256, 256, kernel_size=(3, 3), stride=(1, 1), padding=(1, 1), bias=False)      (bn2): BatchNorm2d(256, eps=1e-05, momentum=0.1, affine=True, track_running_stats=True)      (conv3): Conv2d(256, 1024, kernel_size=(1, 1), stride=(1, 1), bias=False)      (bn3): BatchNorm2d(1024, eps=1e-05, momentum=0.1, affine=True, track_running_stats=True)      (relu): ReLU(inplace=True)    )    (24): Bottleneck(      (conv1): Conv2d(1024, 256, kernel_size=(1, 1), stride=(1, 1), bias=False)      (bn1): BatchNorm2d(256, eps=1e-05, momentum=0.1, affine=True, track_running_stats=True)      (conv2): Conv2d(256, 256, kernel_size=(3, 3), stride=(1, 1), padding=(1, 1), bias=False)      (bn2): BatchNorm2d(256, eps=1e-05, momentum=0.1, affine=True, track_running_stats=True)      (conv3): Conv2d(256, 1024, kernel_size=(1, 1), stride=(1, 1), bias=False)      (bn3): BatchNorm2d(1024, eps=1e-05, momentum=0.1, affine=True, track_running_stats=True)      (relu): ReLU(inplace=True)    )    (25): Bottleneck(      (conv1): Conv2d(1024, 256, kernel_size=(1, 1), stride=(1, 1), bias=False)      (bn1): BatchNorm2d(256, eps=1e-05, momentum=0.1, affine=True, track_running_stats=True)      (conv2): Conv2d(256, 256, kernel_size=(3, 3), stride=(1, 1), padding=(1, 1), bias=False)      (bn2): BatchNorm2d(256, eps=1e-05, momentum=0.1, affine=True, track_running_stats=True)      (conv3): Conv2d(256, 1024, kernel_size=(1, 1), stride=(1, 1), bias=False)      (bn3): BatchNorm2d(1024, eps=1e-05, momentum=0.1, affine=True, track_running_stats=True)      (relu): ReLU(inplace=True)    )    (26): Bottleneck(      (conv1): Conv2d(1024, 256, kernel_size=(1, 1), stride=(1, 1), bias=False)      (bn1): BatchNorm2d(256, eps=1e-05, momentum=0.1, affine=True, track_running_stats=True)      (conv2): Conv2d(256, 256, kernel_size=(3, 3), stride=(1, 1), padding=(1, 1), bias=False)      (bn2): BatchNorm2d(256, eps=1e-05, momentum=0.1, affine=True, track_running_stats=True)      (conv3): Conv2d(256, 1024, kernel_size=(1, 1), stride=(1, 1), bias=False)      (bn3): BatchNorm2d(1024, eps=1e-05, momentum=0.1, affine=True, track_running_stats=True)      (relu): ReLU(inplace=True)    )    (27): Bottleneck(      (conv1): Conv2d(1024, 256, kernel_size=(1, 1), stride=(1, 1), bias=False)      (bn1): BatchNorm2d(256, eps=1e-05, momentum=0.1, affine=True, track_running_stats=True)      (conv2): Conv2d(256, 256, kernel_size=(3, 3), stride=(1, 1), padding=(1, 1), bias=False)      (bn2): BatchNorm2d(256, eps=1e-05, momentum=0.1, affine=True, track_running_stats=True)      (conv3): Conv2d(256, 1024, kernel_size=(1, 1), stride=(1, 1), bias=False)      (bn3): BatchNorm2d(1024, eps=1e-05, momentum=0.1, affine=True, track_running_stats=True)      (relu): ReLU(inplace=True)    )    (28): Bottleneck(      (conv1): Conv2d(1024, 256, kernel_size=(1, 1), stride=(1, 1), bias=False)      (bn1): BatchNorm2d(256, eps=1e-05, momentum=0.1, affine=True, track_running_stats=True)      (conv2): Conv2d(256, 256, kernel_size=(3, 3), stride=(1, 1), padding=(1, 1), bias=False)      (bn2): BatchNorm2d(256, eps=1e-05, momentum=0.1, affine=True, track_running_stats=True)      (conv3): Conv2d(256, 1024, kernel_size=(1, 1), stride=(1, 1), bias=False)      (bn3): BatchNorm2d(1024, eps=1e-05, momentum=0.1, affine=True, track_running_stats=True)      (relu): ReLU(inplace=True)    )    (29): Bottleneck(      (conv1): Conv2d(1024, 256, kernel_size=(1, 1), stride=(1, 1), bias=False)      (bn1): BatchNorm2d(256, eps=1e-05, momentum=0.1, affine=True, track_running_stats=True)      (conv2): Conv2d(256, 256, kernel_size=(3, 3), stride=(1, 1), padding=(1, 1), bias=False)      (bn2): BatchNorm2d(256, eps=1e-05, momentum=0.1, affine=True, track_running_stats=True)      (conv3): Conv2d(256, 1024, kernel_size=(1, 1), stride=(1, 1), bias=False)      (bn3): BatchNorm2d(1024, eps=1e-05, momentum=0.1, affine=True, track_running_stats=True)      (relu): ReLU(inplace=True)    )    (30): Bottleneck(      (conv1): Conv2d(1024, 256, kernel_size=(1, 1), stride=(1, 1), bias=False)      (bn1): BatchNorm2d(256, eps=1e-05, momentum=0.1, affine=True, track_running_stats=True)      (conv2): Conv2d(256, 256, kernel_size=(3, 3), stride=(1, 1), padding=(1, 1), bias=False)      (bn2): BatchNorm2d(256, eps=1e-05, momentum=0.1, affine=True, track_running_stats=True)      (conv3): Conv2d(256, 1024, kernel_size=(1, 1), stride=(1, 1), bias=False)      (bn3): BatchNorm2d(1024, eps=1e-05, momentum=0.1, affine=True, track_running_stats=True)      (relu): ReLU(inplace=True)    )    (31): Bottleneck(      (conv1): Conv2d(1024, 256, kernel_size=(1, 1), stride=(1, 1), bias=False)      (bn1): BatchNorm2d(256, eps=1e-05, momentum=0.1, affine=True, track_running_stats=True)      (conv2): Conv2d(256, 256, kernel_size=(3, 3), stride=(1, 1), padding=(1, 1), bias=False)      (bn2): BatchNorm2d(256, eps=1e-05, momentum=0.1, affine=True, track_running_stats=True)      (conv3): Conv2d(256, 1024, kernel_size=(1, 1), stride=(1, 1), bias=False)      (bn3): BatchNorm2d(1024, eps=1e-05, momentum=0.1, affine=True, track_running_stats=True)      (relu): ReLU(inplace=True)    )    (32): Bottleneck(      (conv1): Conv2d(1024, 256, kernel_size=(1, 1), stride=(1, 1), bias=False)      (bn1): BatchNorm2d(256, eps=1e-05, momentum=0.1, affine=True, track_running_stats=True)      (conv2): Conv2d(256, 256, kernel_size=(3, 3), stride=(1, 1), padding=(1, 1), bias=False)      (bn2): BatchNorm2d(256, eps=1e-05, momentum=0.1, affine=True, track_running_stats=True)      (conv3): Conv2d(256, 1024, kernel_size=(1, 1), stride=(1, 1), bias=False)      (bn3): BatchNorm2d(1024, eps=1e-05, momentum=0.1, affine=True, track_running_stats=True)      (relu): ReLU(inplace=True)    )    (33): Bottleneck(      (conv1): Conv2d(1024, 256, kernel_size=(1, 1), stride=(1, 1), bias=False)      (bn1): BatchNorm2d(256, eps=1e-05, momentum=0.1, affine=True, track_running_stats=True)      (conv2): Conv2d(256, 256, kernel_size=(3, 3), stride=(1, 1), padding=(1, 1), bias=False)      (bn2): BatchNorm2d(256, eps=1e-05, momentum=0.1, affine=True, track_running_stats=True)      (conv3): Conv2d(256, 1024, kernel_size=(1, 1), stride=(1, 1), bias=False)      (bn3): BatchNorm2d(1024, eps=1e-05, momentum=0.1, affine=True, track_running_stats=True)      (relu): ReLU(inplace=True)    )    (34): Bottleneck(      (conv1): Conv2d(1024, 256, kernel_size=(1, 1), stride=(1, 1), bias=False)      (bn1): BatchNorm2d(256, eps=1e-05, momentum=0.1, affine=True, track_running_stats=True)      (conv2): Conv2d(256, 256, kernel_size=(3, 3), stride=(1, 1), padding=(1, 1), bias=False)      (bn2): BatchNorm2d(256, eps=1e-05, momentum=0.1, affine=True, track_running_stats=True)      (conv3): Conv2d(256, 1024, kernel_size=(1, 1), stride=(1, 1), bias=False)      (bn3): BatchNorm2d(1024, eps=1e-05, momentum=0.1, affine=True, track_running_stats=True)      (relu): ReLU(inplace=True)    )    (35): Bottleneck(      (conv1): Conv2d(1024, 256, kernel_size=(1, 1), stride=(1, 1), bias=False)      (bn1): BatchNorm2d(256, eps=1e-05, momentum=0.1, affine=True, track_running_stats=True)      (conv2): Conv2d(256, 256, kernel_size=(3, 3), stride=(1, 1), padding=(1, 1), bias=False)      (bn2): BatchNorm2d(256, eps=1e-05, momentum=0.1, affine=True, track_running_stats=True)      (conv3): Conv2d(256, 1024, kernel_size=(1, 1), stride=(1, 1), bias=False)      (bn3): BatchNorm2d(1024, eps=1e-05, momentum=0.1, affine=True, track_running_stats=True)      (relu): ReLU(inplace=True)    )  )  (layer4): Sequential(    (0): Bottleneck(      (conv1): Conv2d(1024, 512, kernel_size=(1, 1), stride=(1, 1), bias=False)      (bn1): BatchNorm2d(512, eps=1e-05, momentum=0.1, affine=True, track_running_stats=True)      (conv2): Conv2d(512, 512, kernel_size=(3, 3), stride=(2, 2), padding=(1, 1), bias=False)      (bn2): BatchNorm2d(512, eps=1e-05, momentum=0.1, affine=True, track_running_stats=True)      (conv3): Conv2d(512, 2048, kernel_size=(1, 1), stride=(1, 1), bias=False)      (bn3): BatchNorm2d(2048, eps=1e-05, momentum=0.1, affine=True, track_running_stats=True)      (relu): ReLU(inplace=True)      (downsample): Sequential(        (0): Conv2d(1024, 2048, kernel_size=(1, 1), stride=(2, 2), bias=False)        (1): BatchNorm2d(2048, eps=1e-05, momentum=0.1, affine=True, track_running_stats=True)      )    )    (1): Bottleneck(      (conv1): Conv2d(2048, 512, kernel_size=(1, 1), stride=(1, 1), bias=False)      (bn1): BatchNorm2d(512, eps=1e-05, momentum=0.1, affine=True, track_running_stats=True)      (conv2): Conv2d(512, 512, kernel_size=(3, 3), stride=(1, 1), padding=(1, 1), bias=False)      (bn2): BatchNorm2d(512, eps=1e-05, momentum=0.1, affine=True, track_running_stats=True)      (conv3): Conv2d(512, 2048, kernel_size=(1, 1), stride=(1, 1), bias=False)      (bn3): BatchNorm2d(2048, eps=1e-05, momentum=0.1, affine=True, track_running_stats=True)      (relu): ReLU(inplace=True)    )    (2): Bottleneck(      (conv1): Conv2d(2048, 512, kernel_size=(1, 1), stride=(1, 1), bias=False)      (bn1): BatchNorm2d(512, eps=1e-05, momentum=0.1, affine=True, track_running_stats=True)      (conv2): Conv2d(512, 512, kernel_size=(3, 3), stride=(1, 1), padding=(1, 1), bias=False)      (bn2): BatchNorm2d(512, eps=1e-05, momentum=0.1, affine=True, track_running_stats=True)      (conv3): Conv2d(512, 2048, kernel_size=(1, 1), stride=(1, 1), bias=False)      (bn3): BatchNorm2d(2048, eps=1e-05, momentum=0.1, affine=True, track_running_stats=True)      (relu): ReLU(inplace=True)    )  )  (avgpool): AdaptiveAvgPool2d(output_size=(1, 1))  (fc): Sequential(    (0): Linear(in_features=2048, out_features=102, bias=True)    (1): LogSoftmax()  ))</code></pre><h3 id="优化器设置"><a href="#优化器设置" class="headerlink" title="优化器设置"></a>优化器设置</h3><figure class="highlight python"><table><tr><td class="gutter"><pre><span class="line">1</span><br><span class="line">2</span><br><span class="line">3</span><br><span class="line">4</span><br><span class="line">5</span><br></pre></td><td
…
